…
                            horizontal_flip=True)

datagen.fit(X_train)

model.fit_generator(datagen.flow(X_train, y_train, batch_size = 32),
                    validation_data = datagen.flow(X_val, y_val, batch_size = 32),
                    steps_per_epoch = len(X_train) / 32, 
                    validation_steps = len(X_val) / 32, epochs = epochs, 
                    callbacks = callbacks, verbose = verbose)





Layer (type)                 Output Shape              Param #   
=================================================================
conv2d_1 (Conv2D)            (None, 62, 62, 32)        896       
_________________________________________________________________
conv2d_2 (Conv2D)            (None, 60, 60, 32)        9248      
_________________________________________________________________
batch_normalization_1 (Batch (None, 60, 60, 32)        128       
_________________________________________________________________
max_pooling2d_1 (MaxPooling2 (None, 30, 30, 32)        0         
_________________________________________________________________
dropout_1 (Dropout)          (None, 30, 30, 32)        0         
_________________________________________________________________
flatten_1 (Flatten)          (None, 28800)             0         
_________________________________________________________________
dense_1 (Dense)              (None, 128)               3686528   
_________________________________________________________________
dense_2 (Dense)              (None, 7)                 903       
=================================================================
Total params: 3,697,703
Trainable params: 3,697,639
Non-trainable params: 64
_________________________________________________________________
Epoch 1/65
141/140 [==============================] - 6s 40ms/step - loss: 1.7016 - acc: 0.3937 - val_loss: 1.4788 - val_acc: 0.4720
Epoch 2/65
141/140 [==============================] - 4s 29ms/step - loss: 1.4415 - acc: 0.4643 - val_loss: 1.4668 - val_acc: 0.4880
…
