…
                            horizontal_flip=True)

datagen.fit(X_train)

model.fit_generator(datagen.flow(X_train, y_train, batch_size = 32),
                    validation_data = datagen.flow(X_val, y_val, batch_size = 32),
                    steps_per_epoch = len(X_train) / 32, 
                    validation_steps = len(X_val) / 16, epochs = epochs, 
                    callbacks = callbacks, verbose = verbose)














Layer (type)                 Output Shape              Param #   
=================================================================
conv2d_1 (Conv2D)            (None, 126, 126, 32)      896       
_________________________________________________________________
conv2d_2 (Conv2D)            (None, 124, 124, 32)      9248      
_________________________________________________________________
max_pooling2d_1 (MaxPooling2 (None, 62, 62, 32)        0         
_________________________________________________________________
conv2d_3 (Conv2D)            (None, 61, 61, 64)        8256      
_________________________________________________________________
conv2d_4 (Conv2D)            (None, 60, 60, 32)        8224      
_________________________________________________________________
max_pooling2d_2 (MaxPooling2 (None, 30, 30, 32)        0         
_________________________________________________________________
conv2d_5 (Conv2D)            (None, 29, 29, 128)       16512     
_________________________________________________________________
conv2d_6 (Conv2D)            (None, 28, 28, 128)       65664     
_________________________________________________________________
max_pooling2d_3 (MaxPooling2 (None, 14, 14, 128)       0         
_________________________________________________________________
flatten_1 (Flatten)          (None, 25088)             0         
_________________________________________________________________
dense_1 (Dense)              (None, 128)               3211392   
_________________________________________________________________
dense_2 (Dense)              (None, 3)                 387       
=================================================================
Total params: 3,320,579
Trainable params: 3,320,579
Non-trainable params: 0
____________________________









_____________________________________
Epoch 1/100
430/429 [==============================] - 55s 127ms/step - loss: 0.8726 - acc: 0.6014 - val_loss: 0.7958 - val_acc: 0.6381
Epoch 2/100
430/429 [==============================] - 51s 119ms/step - loss: 0.7642 - acc: 0.6549 - val_loss: 0.7326 - val_acc: 0.6672
…
